hw1/models/model.ckpt (torch, 10135 bytes, 5 tensors)

layers.0.weight f4 [16, 117]
000000 26 c2 1f bd 80 d3 99 3c 1e 0e 2c bd aa 9c 1e 3d
       -0.039003514 0.018777609 -0.04200565 0.038723625
000010 88 ea b0 bd 60 30 e4 3b 60 dc b7 bc 70 f7 a8 3b
       -0.08638483 0.0069637746 -0.02244395 0.00515645
000020 a4 6c ba bc da 55 3f 3d 89 b4 ba 3d da 8a 46 3d
       -0.022756882 0.046712734 0.091164656 0.048472263
000030 76 03 25 3d f7 4c a6 3d f8 ba de bc 4e b5 14 3d
       0.040286504 0.08120149 -0.027188763 0.036305718
000040 b5 15 94 3d b7 28 27 bd 2d 88 8d 3d 6b 11 bc 3d
       0.07230703 -0.040810313 0.06910739 0.0918301
000050 50 b9 5b bc e4 b7 af 3c 98 02 60 bd a9 c8 b0 3d
       -0.013410881 0.02144999 -0.054689974 0.08632023
000060 17 7e 9f 3d 4d e7 66 bd 85 38 67 bd e4 a7 95 3c
       0.077877216 -0.05637293 -0.056450386 0.018268533
000070 b6 82 02 3d f6 8f 86 bd f8 b6 1b 3c 21 71 b2 3d
       0.031862937 -0.06570427 0.009504072 0.08712984
000080 88 c9 98 3c fe 51 81 bd d4 b7 eb 3c c0 f1 7b bb
       0.018650785 -0.06314467 0.02877418 -0.0038443655
000090 00 ec 2e 3a c9 7b 89 bd 70 9e 91 3c 7c 1e c8 bc
       0.000667274 -0.06713063 0.017775744 -0.024428599
0000a0 71 31 8b bd b2 9b 17 3d e6 a5 23 3d 16 60 72 3d
       -0.067965396 0.037013717 0.039953135 0.059173666
0000b0 26 ac 72 3d 10 05 ae bc 30 1b 23 3c 91 2f 99 3d
       0.059246205 -0.021242648 0.0099552125 0.07479776
0000c0 ca 3b 3a 3d a8 54 ee 3c d0 21 02 bd bc 4b 92 3c
       0.045467176 0.029093102 -0.031770527 0.017858379
0000d0 83 8c 3f bd 30 01 a7 bd 4d 6b 99 3d 8e 28 0a 3d
       -0.04676486 -0.081545234 0.07491169 0.033730082
0000e0 10 99 41 3c f0 9e b6 bc 66 da 94 bd 6f f8 91 3d
       0.011816278 -0.022292584 -0.07268219 0.07127463
0000f0 b6 8c 54 3d ef 78 af 3d 55 83 6d bd 36 20 02 3d
       0.051892005 0.08567988 -0.057986576 0.031769
000100 dd 6a 15 bd a0 bb b5 bc 42 9a 32 3d b2 4b 7b 3d
       -0.036478866 -0.022184193 0.043604143 0.061351486
000110 10 0d fb bc b9 8f 9d bd e2 d0 4d 3d 70 41 f0 bb
       -0.030645877 -0.076934285 0.050248034 -0.0073320195
000120 e7 da a5 3d 26 7c 7a bd 45 75 5d bd ae f1 58 bd
       0.08098393 -0.061153553 -0.054066915 -0.05296486
000130 44 85 9c bd e0 6d 09 bb 4c 76 a8 3c 56 38 9d bd
       -0.07642606 -0.0020970032 0.02056422 -0.07676761
000140 f0 a4 79 3c 29 52 ad bd 80 65 e0 bb da 41 56 3d
       0.015237078 -0.084629364 -0.0068480372 0.052308895
000150 11 00 92 3d b0 91 e6 3c 6c b9 bf 3c d2 df 0e 3d
       0.07128919 0.028145641 0.023403846 0.03488142
000160 23 ec b3 3d da 47 1f 3d 64 f6 fd 3c 3d 7a 71 bd
       0.08785274 0.038886882 0.031001277 -0.058954466
000170 10 dd 95 bd c0 0f 34 3b 70 0c a2 3c 08 c1 5d 3c
       -0.07317555 0.0027475208 0.019781321 0.013534792
000180 5c fc 48 bd cc d0 a3 3c db 07 8d 3d 42 ee 44 3d
       -0.049068794 0.019997023 0.06886264 0.048078783
000190 2c b7 cc 3c de f4 21 bd a4 a7 5a bd f4 96 ac bc
       0.024989687 -0.039540164 -0.05338253 -0.021068074
0001a0 1f 78 b8 bd c0 90 70 3c a6 71 0b bd 78 b0 86 bd
       -0.09007286 0.014682949 -0.03404393 -0.065766275
0001b0 6a 8c bc bd 2e 36 62 3d 3a 53 8d bd 90 b7 1e bc
       -0.09206469 0.05522745 -0.0690064 -0.009687319
0001c0 2c f4 96 bd 38 6c 9c bc 6e 12 86 bd fc 17 c5 3c
       -0.07370791 -0.019094571 -0.06546484 0.024059288
0001d0 e9 49 59 bd 05 4e e9 bd 4e f7 fc 3b e0 19 a5 3d
       -0.053049 -0.11391834 0.0077199107 0.08061576
0001e0 f8 1d a1 bd 87 33 02 3c b4 9f b2 bd c9 6f 94 bc
       -0.07867044 0.007946855 -0.08721867 -0.01811971
0001f0 59 13 5e bc b4 1b b1 3d 5f c3 a9 3c 0a ef 76 3d
       -0.0135544175 0.08647862 0.020723043 0.06028656
000200 8b a9 63 bd a3 39 dc bc 11 53 b3 bd 6b 19 45 bd
       -0.05558161 -0.026882952 -0.08756078 -0.048119944
000210 f1 d0 f4 3c 83 af 4c bd ca 3e f9 3b 5b 55 a9 b9
       0.029884787 -0.04997207 0.007606362 -0.00032297787
000220 f5 1d b1 bd bf 88 ae bd 5d 31 b9 bd 27 0d 69 3c
       -0.08648292 -0.08522176 -0.090426184 0.014224327
000230 51 c5 bc bd 1c 92 a3 3d 48 7a 61 bd f4 df d7 bc
       -0.092173226 0.079868525 -0.055048257 -0.026351906
000240 e1 74 0d 3d e2 45 6e 3d 87 6f b0 bd f2 e3 b5 3d
       0.034535293 0.058172114 -0.08615022 0.08881368
000250 c8 79 87 3d 72 0b 7d bd f9 e9 49 bd c2 c0 a1 3c
       0.06615025 -0.061778493 -0.0492954 0.019745234
000260 4f 78 22 3d 69 91 1b bb 39 c2 c7 3c 4e 8d aa bd
       0.039665516 -0.0023737794 0.024384605 -0.08327733
000270 38 64 af bd fb c9 b1 bd ea b7 a5 bd 1c 6a 0f 3d
       -0.08564037 -0.08681103 -0.080917194 0.035013303
000280 92 b9 a5 bc b5 e5 83 bc 95 76 a2 bd ce 47 f1 3b
       -0.020230088 -0.016100744 -0.07932774 0.007363296
000290 15 9f 8b 3d 06 3f 9c 3d 91 f3 b1 3c b8 ee aa bd
       0.06817452 0.07629208 0.021722587 -0.08346313
0002a0 e7 93 80 bd 80 77 7f 3d e5 be e3 bc 1b 70 a2 3d
       -0.0627821 0.062369823 -0.027800987 0.07931539
0002b0 2c 02 85 3d ab 9c b6 bd 71 45 3e bd b0 fd 7f ba
       0.06494555 -0.08916601 -0.046452943 -0.00097652804
0002c0 d0 3f 23 bd fc f7 8a bd 0d aa 82 3d 59 46 b8 3d
       -0.03985578 -0.067855805 0.06380091 0.08997793
0002d0 a0 19 b4 3d 76 42 ac bd cf 25 43 3d 4e 09 ae bd
       0.0879395 -0.08411114 0.04764348 -0.084978685
0002e0 b1 e6 76 3c 47 5e a3 3d ee 87 83 3d bc 82 16 3d
       0.01506965 0.07976966 0.06422411 0.03674577
0002f0 35 52 67 3d a5 98 2c 3d 69 97 91 3d ec ce 09 bd
       0.056474883 0.04213776 0.07108957 -0.0336446
000300 fa 96 ce 3c a3 ea b5 bc ea 78 5a bc 98 39 5b bb
       0.025218476 -0.02220661 -0.013334492 -0.0033451077
000310 2f aa b3 bd 24 66 41 bd a0 ef bf 39 4a 40 ba 3d
       -0.08772694 -0.04721655 0.00036608893 0.090942934
000320 db 11 6c bc c5 df 84 3d 1c 76 91 3b 32 46 9c 3d
       -0.014408554 0.06487993 0.0044391286 0.07630576
000330 9e 04 3b bd c8 12 07 bd ea ea d1 bc 0c 84 3c bd
       -0.0456587 -0.032976896 -0.025624711 -0.046024367
000340 1b 4b 84 bd 78 7d 83 3c 6a bc 40 bd 71 8a 8b bd
       -0.06459638 0.01605104 -0.047054686 -0.06813515
000350 87 87 9a bd ce b0 fe 3c bd e0 8b 3d d5 2e df 3b
       -0.07545381 0.031090166 0.06829975 0.0068110027
000360 d1 77 3a 3c 5b 71 26 bc 1e 7f ab 3d de 22 39 3c
       0.0113811055 -0.010158862 0.08373855 0.011299817
000370 f4 32 85 bd 91 c7 5f bd d8 1a 70 bb c6 cd 29 3d
       -0.06503859 -0.05463368 -0.0036637094 0.041456006
000380 d1 c5 87 3d d6 0d 9e bc e9 74 1f 3d 26 be ad 3d
       0.06629527 -0.019293707 0.038929854 0.084835336
000390 e2 31 05 3c 40 25 94 3d 44 d1 70 3c d3 01 5e 3d
       0.008129569 0.072336674 0.01469833 0.05420096
0003a0 f0 cb e2 3c 42 d6 81 3d 85 56 79 bc d0 24 91 3d
       0.027685136 0.063396946 -0.015218382 0.070870996
0003b0 01 a5 b8 3d 5d 5d 7e bc 95 7f 72 3c a9 77 80 3c
       0.09015847 -0.015525189 0.014800926 0.015682058
0003c0 c6 a0 27 bc 70 29 47 3d 99 14 9c 3d e1 e2 79 3d
       -0.0102312025 0.048623502 0.07621116 0.061007384
0003d0 11 f8 a9 3d 47 1c 2b 3d 61 66 31 3d 13 31 76 3c
       0.08299268 0.041775014 0.043310527 0.015026349
0003e0 f2 ca 23 bd 3c cf 56 bd 92 03 67 bd cf bc ed 3c
       -0.039988466 -0.052443728 -0.05639989 0.029020695
0003f0 47 77 43 bd 37 b5 d2 3c b9 27 70 bd ac 35 d1 bb
       -0.047721174 0.025721176 -0.058631632 -0.006384572

layers.0.bias f4 [16]
000000 11 e5 92 bd ad eb 1d bd 9e 0f 99 bd 1d f0 48 bd
       -0.07172597 -0.038554836 -0.07473682 -0.049057115
000010 94 92 b7 3d 0a 7f 3d bd 2d de 1a 3d da 76 60 3d
       0.089635044 -0.046263732 0.03780954 0.054800846
000020 86 18 78 bd e9 a5 b5 3d e7 85 a1 3d e4 cb 63 3d
       -0.060570262 0.088695355 0.07886868 0.055614367
000030 78 54 c6 bc f8 a2 cc 3c c7 d5 64 3d 77 b9 b0 bd
       -0.0242102 0.024980053 0.055867936 -0.086291246

layers.2.weight f4 [8, 16]
000000 86 4e 09 3e 1d 5e 48 be 31 09 7f bd f1 3c 48 3e
       0.1340886 -0.19567151 -0.062264625 0.19554497
000010 fd ad 8d 3d b0 c8 03 3e 5d 8f 5a be c6 e7 25 bc
       0.06917951 0.12869525 -0.21343751 -0.01012606
000020 60 24 24 3d a8 d5 4d bd fd b5 3a 3e b5 23 6d be
       0.040073752 -0.050252587 0.18233486 -0.23158152
000030 00 51 68 bc c1 f4 9a bd 3d a8 f1 bc 19 11 18 be
       -0.014179468 -0.07566214 -0.029499168 -0.14850272
000040 68 ac 1c be e3 e4 e4 bd 73 10 1c 3e ec 51 0a 3e
       -0.15300143 -0.11176469 0.1524065 0.13507813
000050 ff 5f ea bd 11 08 df bd 46 73 4a be 57 10 48 be
       -0.11444091 -0.108902104 -0.19770536 -0.19537483
000060 ec 91 88 3d c8 45 84 3d 9c 8b c8 bd 19 f9 2d be
       0.066684574 0.06458622 -0.097922534 -0.16989554
000070 74 95 a2 bd a0 58 2e 3d db 4c 3c 3e 50 41 c7 3c
       -0.07938662 0.042564988 0.18388693 0.024323136
000080 74 93 9d 3d a8 f8 d0 3d ec 3b 21 be e6 19 a3 bd
       0.0769414 0.102036774 -0.15745515 -0.07963924
000090 ba 3c c8 bd 89 99 9f 3d 78 59 2b 3c 69 46 84 3e
       -0.09777208 0.077929564 0.010458343 0.2583497
0000a0 70 dd ae 3c a0 6d bd 3c 92 64 24 3e 3e 8a 20 3c
       0.021345824 0.023123562 0.1605399 0.0097985845
0000b0 64 0d 32 3e 71 5e 41 3d 5b a8 71 3e a4 38 4d 3e
       0.1738792 0.047209207 0.23599379 0.20041138
0000c0 50 34 b2 bc 5f a2 f6 3d 7c b4 19 3b 58 22 6d 3e
       -0.02175346 0.120426886 0.0023453524 0.23157632
0000d0 9d 5e 27 3e 99 19 86 3d fc 13 25 3e db f4 95 3e
       0.16344686 0.06547851 0.16120905 0.29288372
0000e0 40 0e 75 bc 28 e9 04 be 1a 32 40 bc 7b 7d c6 bc
       -0.014957011 -0.12979567 -0.011730695 -0.024229756
0000f0 66 68 37 3e 67 e1 ef bd 68 bb bd 3e 68 de 8f be
       0.17910919 -0.11712914 0.37057042 -0.2809937
000100 62 76 43 be ff 18 87 bd d0 02 82 3e f1 78 d4 3c
       -0.19088128 -0.065965645 0.2539277 0.025936576
000110 d2 87 14 3e d7 26 3e be 46 43 61 3e 0f 5b 5a 3e
       0.14504936 -0.18569504 0.21998319 0.21323799
000120 08 e3 45 bd ea 40 47 be 05 96 38 3c 3d 71 47 3e
       -0.048312217 -0.19458356 0.011266236 0.1947679
000130 d0 cd 07 be 37 6a 18 3e 37 2b 0b be 60 93 77 be
       -0.13262105 0.14884268 -0.13590704 -0.24177313
000140 3c 1d d1 3d 00 68 95 3c 1c 92 d9 bc 3c 78 0a 3e
       0.10210654 0.018238068 -0.026558928 0.13522428
000150 ec ff 67 bd 61 38 16 bc 9d 69 05 3d d9 cd 00 be
       -0.05664055 -0.009168715 0.032571424 -0.12578525
000160 ae 2f 77 3e 8a 1f 4a 3e 70 d0 45 be 60 54 1d 3e
       0.24139282 0.19738594 -0.19317794 0.15364218
000170 f8 45 ba 3d ab d5 c7 bd 56 60 04 3e af de 8b 3d
       0.09095377 -0.09757551 0.12927374 0.06829583
000180 e6 cc 2e be 22 e5 4b bd 5c ae 1e be 38 ad 3d be
       -0.1707035 -0.049779065 -0.154962 -0.18523109
000190 91 77 18 3e 48 d5 06 3d 1c b5 f6 bd 28 7f 05 3e
       0.14889361 0.032918245 -0.120462626 0.13036788
0001a0 20 d3 37 3c c0 e3 8e 3b ce 27 8d 3d 22 70 83 be
       0.01121977 0.004360646 0.06892358 -0.25671488
0001b0 ee 31 2e be 17 d2 06 3d 2c 9e d9 bd 11 4c 5a 3e
       -0.17011234 0.0329152 -0.10625872 0.2131808
0001c0 80 77 61 3b 97 1a b4 3d c0 76 85 be ec 99 45 3e
       0.0034403503 0.08794134 -0.26067162 0.19296998
0001d0 e9 d0 7c be a8 f2 03 3d 74 8c 49 3d 1a 23 ce 3d
       -0.24689068 0.032213837 0.049206212 0.10065289
0001e0 44 c2 5c 3e 90 55 09 be 6e ef 1d be ff 60 62 3e
       0.21558481 -0.13411546 -0.15423366 0.22107314
0001f0 b2 b0 3c 3e 8f 4f 09 3d b4 7a b5 bd 92 c5 f8 bd
       0.18426779 0.03352314 -0.088612944 -0.121470585

layers.2.bias f4 [8]
000000 2f ae fa bd b9 83 09 3e d5 e2 21 bb 17 ed cb bb
       -0.12240254 0.13429154 -0.0024701853 -0.0062233317
000010 70 83 15 3c eb ad 60 be 59 b1 4b bd e6 cd eb 3c
       0.009125575 -0.21941344 -0.04972968 0.028784703

layers.4.weight f4 [1, 8]
000000 3b b9 1a be 1e c2 72 bd ba bd 70 3e 62 19 f9 3e
       -0.15109722 -0.059267156 0.23509875 0.48652178
000010 a2 7e 33 3e 9c 4a 0d 3d c7 9e 6f 3e 81 1a 38 be
       0.17528775 0.03449498 0.23400412 -0.1797886
