hw1/models/model.ckpt (torch, 10135 bytes, 5 tensors)

layers.0.weight f4 [16, 117]
000000 ce ff b9 bc 72 b4 20 3d 61 f3 1d bd b2 44 bc bd
       -0.022704985 0.039234586 -0.038562182 -0.0919279
000010 85 c3 8a 3d d5 f8 2b 3d fe 8d ed 3c 4f 9f e8 bc
       0.06775574 0.04198535 0.028998371 -0.028396277
000020 c0 e6 c5 bc 70 65 fd bb 90 11 c6 3c d5 09 ac 3d
       -0.024157882 -0.0077330396 0.024178296 0.08400313
000030 84 b4 eb 3c 3c f5 94 bd 10 1a db 3b 2d b0 23 ba
       0.0287726 -0.07273337 0.0066864565 -0.0006244209
000040 07 96 96 3d 34 07 81 bc 81 91 9a bd 93 9e 37 3d
       0.07352834 -0.015750505 -0.07547284 0.044828963
000050 1a 54 b3 bc c8 8c 7a bc 8a 3b 6f 3d 28 ca 79 3c
       -0.021890689 -0.015292354 0.05840639 0.015245952
000060 68 40 2d bc 5e 42 13 bd 7f 55 46 3d 05 a8 a9 bc
       -0.010574438 -0.035951965 0.04842138 -0.02071
000070 fb a9 a5 3d a4 99 92 3b c7 1e 76 bd 5c a2 16 3d
       0.08089062 0.004473882 -0.060087945 0.03677593
000080 ed 36 85 3d da 9b ad bd be ce 0a 3d a0 fc ba bd
       0.06504617 -0.08476992 0.03388857 -0.09130216
000090 b2 c6 58 3d e0 6f 86 3c 7a e8 7c bd 7d c1 ac bd
       0.052923866 0.016410768 -0.061745144 -0.084353425
0000a0 c1 55 07 bc 5e 2e a1 bd e7 53 d2 3c 57 3e 7c 3d
       -0.008260191 -0.07870172 0.025674773 0.06158289
0000b0 bd ce 51 bc 9a 1a c1 bd 8d e6 ff 3c c5 5e 96 bd
       -0.012805638 -0.09428902 0.031237865 -0.073422946
0000c0 97 dd 51 3c f3 5f 69 bd b7 79 2e 3d bd 2f 24 3d
       0.012809179 -0.05697627 0.042596545 0.04008459
0000d0 af de 90 3d 28 cc 05 bc f1 e0 b3 bd 79 e5 82 bd
       0.070737235 -0.00816635 -0.087831385 -0.06391425
0000e0 67 34 34 3d 41 80 32 bd 12 94 2b 3d 3b 06 bb 3d
       0.043995287 -0.043579344 0.041889258 0.09132048
0000f0 7b 64 07 bc f6 56 6a 3c 99 b7 b9 bd eb d3 fe bc
       -0.0082637025 0.01430296 -0.090682216 -0.03110691
000100 2f 1a ab bc b6 59 80 bd ba 64 19 bc c1 e7 1f 3d
       -0.020886509 -0.06267111 -0.009362394 0.039039377
000110 53 95 06 bd 1d df 4b 3d 34 80 68 bc 3b 9b 9b 3d
       -0.03285725 0.049773324 -0.014190722 0.07597967
000120 29 4b 33 b9 16 45 5f 3c b4 1c df 3c 34 7d 5e bd
       -0.0001709877 0.013627311 0.027235366 -0.05431862
000130 0a a7 a6 bb ae 2e 30 3d e9 0e c6 bb 93 55 ba bd
       -0.0050858306 0.043013267 -0.006044258 -0.09098353
000140 ba af 79 bd 03 e1 8d 3b c9 08 a3 3d a4 89 88 bd
       -0.0609586 0.004329802 0.0796066 -0.06666878
000150 f1 6b 6b bc 35 82 bc 3c 75 56 1d 3d 83 e0 d7 bc
       -0.014368997 0.023011306 0.03841253 -0.026352173
000160 47 c7 04 bd 66 8c c8 3c d1 ac 8b 3c fe 6e fa bc
       -0.03241661 0.02448101 0.017050179 -0.030570503
000170 79 d3 89 3d dd e8 21 3c 4f c4 a5 bd 73 63 fd bc
       0.06729788 0.009882179 -0.080940835 -0.03093121
000180 44 61 3b bd 50 14 61 3d da c1 8a 3d 65 e2 f2 bc
       -0.045747057 0.054951012 0.067752555 -0.029648969
000190 46 54 bc bd ba e6 11 3d 8b 9b 41 bc 15 95 4e 3d
       -0.091957614 0.03562043 -0.0118168695 0.050435144
0001a0 f3 30 a2 3d 44 12 5a 3d 4a f2 90 3d b0 c8 89 3c
       0.079194926 0.053240076 0.07077463 0.016819328
0001b0 e4 de 05 bc 42 74 53 bd da fb ea bc 63 ee 9f 3c
       -0.008170817 -0.051624544 -0.028684545 0.019522851
0001c0 7b db 33 3d b0 db 1c bd 0b 8d 26 3d b6 2f aa 3d
       0.043910485 -0.038295448 0.040661853 0.083098814
0001d0 11 3d a3 bd 4f 6a 32 3b 21 0a ad 3d 40 66 2d bd
       -0.07970632 0.002722401 0.084491976 -0.04233384
0001e0 a6 e3 e0 bc 71 50 5d 3d 4e fd b4 3d 4a 50 0c bd
       -0.027452301 0.054031793 0.088373765 -0.034256257
0001f0 d1 1b 1b bd 03 b4 cc bc ce 34 8e bd e0 47 e0 bb
       -0.037868325 -0.02498818 -0.069436654 -0.0068445057
000200 5e 85 47 bd fa 6f 1a bb cc f3 54 bd f2 51 77 3d
       -0.048711173 -0.0023565278 -0.051990315 0.060380884
000210 8c c2 e3 3b c0 9e cc 39 35 be f5 3c 8d cf 50 bd
       0.006950682 0.0003902819 0.029997924 -0.050979186
000220 7d ba b7 3c 5b 28 a5 3d a2 ad ab bd c4 b3 21 bd
       0.022427792 0.08064338 -0.08382727 -0.03947808
000230 1e 16 b9 3d de 07 58 bd 37 ef a0 3b 47 5f 49 3d
       0.09037422 -0.052741878 0.004911329 0.04916313
000240 c2 c0 d4 bc 30 ba ca 3b 56 59 c0 bc 7f 57 1a 3c
       -0.02597082 0.006186746 -0.023480099 0.009420275
000250 3e ff 09 bd 65 29 8f bc 64 11 79 3d b3 7c a7 3c
       -0.033690684 -0.017475793 0.0608076 0.020445203
000260 8b 33 13 bd 79 be b4 3c bb 9a 19 bd 61 d1 9a 3d
       -0.035937827 0.02206348 -0.037501078 0.07559467
000270 42 94 78 bc d1 13 99 bd 92 c6 a3 bd 36 93 58 3d
       -0.015172066 -0.07474483 -0.07996859 0.052874766
000280 55 fb c5 3d e7 02 30 bd 2d eb d4 bd 8e be 88 3d
       0.096670784 -0.042971518 -0.10396419 0.066769704
000290 88 1e f0 bc 47 42 7b bd bc 25 17 3c c2 85 ff bc
       -0.029311433 -0.061342504 0.009225305 -0.03119171
0002a0 51 c4 9a 3d 68 68 fe bc 81 bd 7e bd 3c 62 e8 3c
       0.07556976 -0.031055644 -0.062192444 0.028367154
0002b0 db f6 12 3d 90 90 9f 3d 76 d8 90 bd 71 3c 36 bc
       0.03587995 0.07791245 -0.07072537 -0.011122809
0002c0 92 39 05 b9 d6 0f ad 3c 96 d9 d1 3b 04 4b 15 bd
       -0.00012705315 0.021125715 0.006404112 -0.036448494
0002d0 70 28 95 3d 26 be c7 bc f5 0e 78 bd 06 6c 3c 3d
       0.072831035 -0.024382662 -0.06056114 0.046001457
0002e0 e3 25 9b 3c a1 6c 33 3d b9 91 02 3d 84 80 31 bd
       0.018938964 0.04380477 0.031877253 -0.043335453
0002f0 63 f0 fd 3b 91 bd 0c bd 17 6d 65 bc 88 e8 e6 3c
       0.0077496036 -0.034360472 -0.01400306 0.028187051
000300 40 14 02 bd a9 9a 0e bd 39 c6 20 3c 51 b2 84 bd
       -0.031757593 -0.034815464 0.009812885 -0.06479324
000310 4f af 1c 3d b2 15 84 bb 01 bb 10 3d 6a bc 23 3d
       0.038253125 -0.0040309066 0.03533459 0.039974608
000320 65 30 31 3d 72 c1 cb bc a5 76 0f 3e 59 0d 64 bd
       0.043259043 -0.024872515 0.14010103 -0.05567679
000330 5a af ac 3d a1 51 30 3c e8 c0 37 3d d8 69 d2 bd
       0.08431883 0.010761649 0.044861704 -0.10274094
000340 e0 91 20 bc e8 a0 65 3d 64 bf 2d b9 97 a9 93 3d
       -0.009800404 0.056061655 -0.00016569864 0.07210081
000350 9f c2 f4 bb e1 37 22 3d 5c 95 60 3d 9f e3 41 bd
       -0.0074694897 0.03960407 0.05482994 -0.047336217
000360 9a 4a b9 3d 42 47 82 bc 61 c4 c4 3e db 14 90 3d
       0.09047432 -0.015903119 0.38431075 0.07035228
000370 c6 b2 5f bd af 20 a0 3d f9 79 02 bd e3 4e 59 3d
       -0.05461385 0.07818734 -0.031854603 0.053053748
000380 e7 9a ae 3b a0 2f a9 3d 6d 6d 37 3d d6 de 46 3d
       0.0053285244 0.08261037 0.04478209 0.048552357
000390 31 80 7c bd 23 b1 0d bc 28 b0 89 bb 33 46 3c 3d
       -0.06164569 -0.00864819 -0.0042019077 0.045965385
0003a0 c4 ef eb 3b 49 07 e3 3c 65 1a 8a bd ba d3 5a bd
       0.007200213 0.027713435 -0.067433156 -0.053424574
0003b0 16 f8 1c bd a8 8c fd bc 8f 6f 38 bd e7 4e b1 3d
       -0.03832253 -0.03095086 -0.045028266 0.086576276
0003c0 56 d0 05 3d 23 26 9d 3d 58 cf b4 3c b0 9e ab bc
       0.032669388 0.076732896 0.022071525 -0.020949692
0003d0 b4 88 c2 bc 58 47 93 3c fc 47 ea 3c a0 09 8c bb
       -0.023746826 0.017978355 0.028598778 -0.0042736083
0003e0 53 69 4d bd 72 ed 4c 3d 26 dd 2e bd a6 2e 08 3d
       -0.050149273 0.050031133 -0.042691372 0.033247612
0003f0 f7 9f 8f 3d 68 1f 1c bc 58 89 41 3c 5a 9f 13 3d
       0.07012933 -0.009528972 0.01181253 0.03604064

layers.0.bias f4 [16]
000000 24 20 4b 3d e0 da a9 3d fe 37 3c 3d 95 37 98 bd
       0.0495912 0.082937 0.045951836 -0.074324764
000010 fe bf d1 3b ac 9c 46 bd bc be af bc 17 5a 92 bd
       0.006401061 -0.048489258 -0.021453254 -0.071460895
000020 2f 46 d5 bb e0 4a 6d 3c 5f 42 56 3c 30 e2 6b bd
       -0.0065086107 0.014483184 0.013077348 -0.057588756
000030 14 b8 64 3d 0d 12 34 bd d8 99 60 bc 19 6e b3 bd
       0.055839613 -0.043962527 -0.013708554 -0.08761234

layers.2.weight f4 [8, 16]
000000 c9 f4 6f 3c fe a0 b2 3e 22 5c 1a 3e a5 77 72 bd
       0.014645764 0.34888452 0.15074208 -0.059196133
000010 2c d3 6b be aa ee 61 be 49 db 20 3e f8 0a 0a 3e
       -0.23029774 -0.220637 0.1570865 0.13480747
000020 27 e6 f9 bd de ad 42 be 20 d8 75 3e a8 ca 21 bd
       -0.12202101 -0.19011638 0.24008226 -0.03949991
000030 c2 91 d4 3d 73 66 61 be 63 31 8b 3d 7a bc 03 3f
       0.103793636 -0.22011738 0.06796529 0.5145947
000040 e2 45 3b 3e 00 46 6e be 14 5a df bd 40 5b dd 3b
       0.18288377 -0.2326889 -0.10905853 0.0067552626
000050 dc d3 fc 3d a0 d5 47 be f8 20 62 bd e0 d0 10 bd
       0.123450965 -0.19515085 -0.055207223 -0.03535545
000060 6c c8 0f 3e e6 57 78 be e2 e4 37 be 20 cc 90 bd
       0.14041299 -0.2425228 -0.17958406 -0.07070184
000070 e0 01 6f 3d 38 5e 53 3d d0 ea 70 be 88 23 73 bd
       0.058351398 0.051603526 -0.23527074 -0.059360057
000080 c0 50 64 bc 55 c0 56 bd e0 f7 78 3d d1 9d 01 3e
       -0.013935268 -0.052429516 0.060783267 0.12657858
000090 3d 5b a3 3c f8 b4 7a 3e 16 47 10 3c ec 15 9a bd
       0.019940967 0.24483097 0.008806011 -0.075237125
0000a0 5e 65 cf 3d 28 ab ad bd ac 83 bc bd 84 b5 f4 bd
       0.10126756 -0.08479911 -0.09204802 -0.11948684
0000b0 f2 58 1c be 82 77 eb 3c f8 1f 03 be fc e4 76 bd
       -0.15268305 0.02874351 -0.12805164 -0.06027697
0000c0 cd fa c8 3c 45 23 57 3e ca 04 5f 3e 53 1d f4 3d
       0.024533654 0.21009548 0.2177917 0.11919656
0000d0 90 93 00 3e 70 97 58 be 18 dd 1c 3e f1 a2 a7 bd
       0.1255629 -0.21151519 0.15318716 -0.081853755
0000e0 d8 97 1b be c6 dd 37 3e 22 69 ef 3d 2e 01 50 3e
       -0.15194643 0.17955694 0.11689974 0.2031295
0000f0 8f 29 82 bd e0 84 1d be 32 17 49 3d a0 8d 70 be
       -0.06355583 -0.15382719 0.049094386 -0.23491526
000100 8d ac eb bd 70 11 94 3d 80 80 2e bc 3a 95 4b 3d
       -0.11507521 0.072298884 -0.010650754 0.04970286
000110 db 31 b6 bc 80 b8 b8 bb 64 4a b1 bd ba e5 6a 3e
       -0.02224057 -0.0056372285 -0.08656767 0.22939196
000120 df a0 16 3e c6 ca 43 be a2 ea 9b bb 1e 68 64 3e
       0.14709805 -0.1912032 -0.004758195 0.22305343
000130 76 9f bc bc e4 a2 5a 3e e6 a3 1b 3d cd d8 ee bd
       -0.023025256 0.213512 0.037998103 -0.11662445
000140 7d 90 e0 3d 7d ff a3 3c 40 60 1e bc 78 dc 96 3c
       0.10965059 0.020019287 -0.0096665025 0.018415675
000150 0a 51 58 be 3e 07 07 be c1 b4 98 3d 82 9f e6 3d
       -0.21124664 -0.13186356 0.07456351 0.112608925
000160 38 4e 35 be 42 89 70 be ac f8 70 3e 38 20 b9 3d
       -0.1770562 -0.2348986 0.23532361 0.09039348
000170 51 97 5c 3e 6f dc f3 bd d0 83 35 3d 17 26 0a 3e
       0.21542098 -0.11907279 0.04431516 0.13491093
000180 21 48 fc 3d 0b a1 0c 3d e8 0f 50 bd 68 d9 19 3d
       0.12318445 0.03433327 -0.05079642 0.03756085
000190 87 8b bf 3d 7a b0 2f be 89 f6 ca 3b 1c 9c 5f bd
       0.093527846 -0.17157164 0.00619394 -0.054592237
0001a0 55 5e 68 be b0 5c 2b 3e 34 55 66 bd d8 df c9 3d
       -0.22692235 0.16734576 -0.0562336 0.09857148
0001b0 7f 86 35 3e 48 86 93 3b d0 c9 03 3d 7e a7 e7 bb
       0.17727087 0.0045020916 0.032174885 -0.007069527
0001c0 4c ab 56 3e 15 9f 3c 3e 20 72 77 bd 8b 92 87 bd
       0.20963782 0.1842006 -0.060411572 -0.06619748
0001d0 66 96 73 3e 90 c7 be bd 9c ec 52 bd b2 ac b7 3d
       0.23787841 -0.09315407 -0.05149518 0.08968486
0001e0 da cd 42 be 00 24 d7 3d 5d 2b 1b 3e a0 ac 9f bd
       -0.19023839 0.10504913 0.1515326 -0.077965975
0001f0 d6 33 24 bd 0e e0 43 be ee a8 54 be e3 d0 41 3e
       -0.040088497 -0.19128439 -0.20767567 0.1892734

layers.2.bias f4 [8]
000000 4b cb b0 bc f8 ed 09 3e 32 88 15 be 66 ea 6f be
       -0.021581313 0.13469684 -0.14602736 -0.2342926
000010 1d 61 7c 3e a2 18 2c 3e 1d 93 e4 3d f8 d3 81 3b
       0.24646421 0.16806272 0.11160872 0.003962036

layers.4.weight f4 [1, 8]
000000 9a 17 2b 3f a0 33 b8 3c f7 b1 17 be 21 82 40 be
       0.6683289 0.022485554 -0.14813982 -0.1879964
000010 17 d0 5a 3c 2d ad db 3d 0a 45 bb bd a0 2e ce 3e
       0.013355277 0.1072639 -0.091440275 0.40269947
